Solver_Examples/Dealii_PINN/model4.pth (torch, 283874 bytes, 11 tensors)

weight f4 [320, 2]
0.108055495 -0.051434916 -0.21531409 0.32765162 -0.20600073 0.5684834 0.26081288 -0.24029739
-0.6379677 0.41972065 -0.044748235 0.4654548 0.121287756 0.3773158 0.30607632 0.14502148
0.3599564 0.209214 -0.6450092 -0.42294598 -0.65343475 -0.22399169 -0.343447 -0.3428599
-0.6950966 0.63783276 0.5240231 -0.6050462 0.57616526 0.5471793 0.26776397 -0.071479365
-0.100102216 -0.58125216 -0.09344074 0.10112951 0.32092446 -0.54067576 -0.081720464 -0.7015623
-0.42899978 0.6350317 0.10263904 -0.44913048 0.07869634 0.36917588 0.54114133 -0.6162592
-0.45853063 0.4668957 0.36300084 -0.39956248 0.42704678 -0.5860093 0.1488201 -0.5511388
-0.46070677 0.42507505 -0.69506013 0.29039514 -0.20631658 -0.42644072 0.55379146 0.15381417
-0.51807606 -0.43583643 -0.0070889313 0.03616815 -0.5203681 0.5895064 -0.20732093 0.2517255
0.0015082671 0.33135962 -0.03344479 -0.08824648 0.39979059 0.5671777 -0.6440044 -0.506757
0.6343261 0.30192855 0.44291347 -0.6458687 -0.19359742 0.39693934 0.69900286 -0.33707818
0.36062562 0.3945293 -0.62142706 0.53394794 -0.52455133 0.6079632 -0.46648595 0.60387295
-0.184162 -0.122361235 0.32512695 0.30514738 0.0007411102 -0.13352585 -0.17959994 -0.051373973
0.40523806 0.53484493 -0.6133012 0.2986653 -0.5837518 -0.07051285 -0.6231071 -0.67290837
-0.19016995 -0.6502991 0.33010018 -0.27414325 -0.24713555 -0.39944828 -0.28959066 0.38711205
-0.6452654 0.5521393 0.11118111 -0.34687588 0.3547259 -0.40196088 -0.56445867 0.57647955
-0.45918652 -0.16889852 -0.43554544 -0.45985153 0.6128196 -0.10202218 0.65784115 0.68047494
-0.017687598 -0.03351509 0.06884292 0.33688658 -0.26424608 0.4613882 -0.18827663 -0.2450893
0.44873488 -0.65847504 0.62699145 -0.5917075 -0.2786715 0.4218022 -0.31419674 0.15928702
0.41238222 0.036353342 0.48226824 0.14868185 -0.5308661 -0.6129421 -0.69352716 -0.19091856
-0.46554506 0.5522728 -0.19025011 -0.011586927 0.6476369 0.4474579 -0.026381735 0.58684224
-0.44940838 0.5948561 0.35849974 0.13723284 0.091201566 0.5953954 -0.22297503 -0.16665125
0.48719707 -0.24506082 0.124726266 -0.38404712 -0.19799915 -0.2424548 0.4236741 0.33856016
-0.2238629 -0.5416063 -0.6676079 -0.55744904 0.08061512 -0.5010498 0.46859312 -0.2881585
0.049159072 -0.3585027 -0.46971852 0.3002093 -0.2306181 -0.6871622 0.2574322 0.655716
-0.45793545 -0.26939127 0.07672513 -0.15966836 -0.056170117 -0.6774015 0.30629623 -0.44424084
0.03670746 0.38651198 -0.6753858 -0.03234914 -0.2487667 0.41783306 0.15464918 0.23090202
-0.3682681 -0.47431734 0.00013596573 -0.004983022 0.28040054 -0.6129925 -0.61379594 -0.66350996
-0.5713023 -0.61488473 -0.41794333 0.046875387 0.6355154 -0.5433322 0.10612433 0.3783563
0.267274 -0.5881469 -0.5387508 -0.0645903 0.35800114 0.08433568 -0.008632012 0.33819684
-0.3164613 -0.042065 -0.27039108 -0.08743524 0.6690385 -0.6248859 -0.30674005 0.45511144
-0.2688695 -0.19071794 0.64526653 0.063459836 -0.57068765 -0.68652385 0.17912048 -0.6518646
00000000: 334c dd3d 6bad 52bd 4c7b 5cbe f4c1 a73e
00000010: dbf1 52be 2188 113f 4489 853e 8510 76be
00000020: da51 23bf a0e5 d63e ed49 37bd 1750 ee3e
00000030: b765 f83d 892f c13e 09b6 9c3e 8380 143e
00000040: 354c b83e 323c 563e 531f 25bf 608c d8be
00000050: 8047 27bf 145e 65be 49d8 afbe 558b afbe
00000060: daf1 31bf 0249 233f 6126 063f 4fe4 1abf
00000070: 917f 133f f113 0c3f 5c18 893e c663 92bd
00000080: 6402 cdbd f1cc 14bf dc5d bfbd fd1c cf3d
00000090: 3650 a43e ba69 0abf 0f5d a7bd 9699 33bf
000000a0: dca5 dbbe 7091 223f 6b34 d23d 6ef4 e5be
000000b0: 8c2b a13d 9f04 bd3e 3d88 0a3f 2ac3 1dbf
000000c0: 87c4 eabe f40c ef3e 3fdb b93e 7493 ccbe
000000d0: e0a5 da3e b504 16bf 4c64 183e 6f17 0dbf
000000e0: c2e1 ebbe 70a3 d93e 76ef 31bf acae 943e
000000f0: a744 53be 7056 dabe 47c5 0d3f 7681 1d3e
00000100: a2a0 04bf f425 dfbe 444a e8bb 0e25 143d
00000110: d836 05bf e4e9 163f f04b 54be 2ae2 803e
00000120: 0cb1 c53a f8a7 a93e 67fd 08bd 92ba b4bd
00000130: 5ab1 cc3e 8f32 113f 79dd 24bf d4ba 01bf
00000140: 3263 223f 6196 9a3e 8ec5 e23e a757 25bf
00000150: 673e 46be a23b cb3e daf1 323f 8395 acbe
00000160: eca3 b83e bfff c93e d815 1fbf d0b0 083f
00000170: ff48 06bf 7aa3 1b3f 3fd7 eebe 6b97 1a3f
00000180: f794 3cbe 8798 fabd 0a77 a63e 473c 9c3e
00000190: 1047 423a 00bb 08be 0ce9 37be 846d 52bd
000001a0: 5d7b cf3e 99eb 083f 4f01 1dbf a8ea 983e
000001b0: c270 15bf 0b69 90bd f283 1fbf b943 2cbf
000001c0: e9bb 42be 007a 26bf e402 a93e 815c 8cbe
000001d0: 1a11 7dbe 7c84 ccbe 3a45 94be 8d33 c63e
000001e0: 1d30 25bf 0059 0d3f ecb2 e33d b799 b1be
000001f0: a29e b53e d1cd cdbe 5d80 10bf 2a94 133f
00000200: 7f1a ebbe bcf3 2cbe d0ff debe a971 ebbe
00000210: bfe1 1c3f 01f1 d0bd 4768 283f 9b33 2e3f
00000220: 95e5 90bc 1e47 09bd 84fd 8c3d 667c ac3e
00000230: 434b 87be 133b ec3e 97cb 40be b1f8 7abe
00000240: 94c0 e53e d291 28bf 8382 203f 257a 17bf
00000250: 08ae 8ebe 75f6 d73e 65de a0be 231c 233e
00000260: c323 d33e 3ee7 143d ddeb f63e 0e40 183e
00000270: d7e6 07bf c6e9 1cbf ff8a 31bf 2880 43be
00000280: ec5b eebe c061 0d3f edd0 42be 18d7 3dbc
00000290: 88cb 253f 3419 e53e 821e d8bc 4b3b 163f
000002a0: db18 e6be 7d48 183f 478d b73e c486 0c3e
000002b0: e3c7 ba3d d56b 183f 9153 64be a0a6 2abe
000002c0: e571 f93e 39f1 7abe 7c70 ff3d d3a1 c4be
000002d0: 4ac0 4abe 1246 78be d0eb d83e c257 ad3e
000002e0: 513c 65be b6a6 0abf 5ae8 2abf fbb4 0ebf
000002f0: 8a19 a53d cd44 00bf 70eb ef3e 8389 93be
00000300: 065b 493d aa8d b7be f27e f0be 09b5 993e
00000310: 2727 6cbe dde9 2fbf 27ce 833e 01dd 273f
00000320: 8476 eabe a7ed 89be 1122 9d3d 1a80 23be
00000330: a312 66bd 2f6a 2dbf dcd2 9c3e 8973 e3be
00000340: 905a 163d e6e4 c53e 15e6 2cbf 8880 04bd
00000350: b3bc 7ebe 37ee d53e 5b5c 1e3e 9471 6c3e
00000360: a38d bcbe b9d9 f2be 0692 0e39 9e48 a3bb
00000370: a990 8f3e 14ed 1cbf bb21 1dbf cadb 29bf
00000380: de40 12bf 1669 1dbf abfc d5be 6800 403d
00000390: 23b1 223f d217 0bbf b657 d93d ebb7 c13e
000003a0: 23d8 883e cc90 16bf 93eb 09bf eb47 84bd
000003b0: ed4b b73e 2fb8 ac3d 486d 0dbc 2328 ad3e
000003c0: 3707 a2be 594c 2cbd b370 8abe 3f11 b3bd
000003d0: 1b46 2b3f 86f8 1fbf 080d 9dbe 5e04 e93e
000003e0: 43a9 89be 904b 43be 3030 253f 3bf7 813d
000003f0: 9618 12bf 07c0 2fbf 5c6b 373e 99e0 26bf

bias f4 [320]
-0.6810423 -0.5705483 -0.3985813 0.41902092 -0.16455849 0.55713546 -0.18165089 -0.09915299
-0.64977837 -0.47459045 0.070486896 -0.028077303 0.23456533 0.32420325 -0.572155 -0.45598075
0.38790584 -0.54999816 0.0173248 0.17232683 -0.24189964 -0.37917715 0.13998705 0.42573038
-0.15529747 0.608301 -0.07053452 0.11352784 -0.21846296 0.044351634 -0.21888746 0.17219862
0.08945542 -0.6293114 0.091758914 0.14194721 0.09551108 0.6708279 0.26985344 0.19396493
-0.20371696 0.17714438 -0.036659244 -0.1102575 -0.079928465 0.24780391 0.48314813 -0.28777218
-0.17524102 -0.49598148 -0.3681255 -0.071342304 0.16444696 -0.023962758 -0.0833765 -0.32174197
0.26005086 0.29061422 -0.25203386 0.114540294 0.29170626 0.2602303 -0.18502475 -0.10658373
-0.46008292 -0.69544786 0.34004128 0.582395 0.028270587 -0.55953634 0.68842685 -0.5472002
-0.31857944 -0.4262942 -0.54293233 0.381653 0.44406182 0.19252588 0.119283415 0.47220814
0.6487345 -0.5083258 -0.1379897 -0.15572417 -0.5777709 -0.59011126 0.6962788 0.083388045
0.5687988 -0.60001427 0.3675838 -0.03764059 -0.41106808 -0.33724752 -0.28438997 0.57712066
-0.28073317 -0.5943609 -0.17308834 0.20983103 -0.5007494 -0.61314917 -0.16971119 -0.05716318
0.5742671 -0.66072625 -0.14065263 0.5701662 -0.37568402 -0.021389188 -0.334391 -0.25533825
-0.63662326 -0.06882201 -0.32540116 0.011782489 0.5820697 -0.04573523 0.23575792 -0.4043175
-0.64943546 -0.5184979 -0.43611056 0.045951445 0.4516618 -0.43271908 0.18169792 0.14580332
-0.3269063 0.2265023 0.3426892 -0.071206 -0.32426628 -0.23807532 -0.45780596 0.56423646
0.683092 -0.48191118 0.37197265 -0.414477 0.6092591 -0.17837322 -0.25696048 0.56535906
-0.66141856 0.6481255 -0.59946644 -0.6023797 0.13297272 -0.3870264 -0.2471267 -0.6304172
-0.037228648 -0.5430225 0.4301391 0.28596064 0.01099881 0.3658627 -0.20932637 0.46554515
0.0066133463 -0.11484747 -0.5782912 -0.055710547 0.10885882 -0.6710074 0.0375831 0.22773594
0.2991246 0.7062361 0.17920165 0.095724426 -0.47248006 0.17799853 0.35824686 0.5534559
0.51244724 -0.010721737 0.4542716 0.47856134 0.3938676 -0.6512599 0.58461773 -0.34499565
-0.2544508 -0.5264852 0.2352144 0.32590008 -0.529023 -0.07511698 -0.34001145 0.12529027
-0.3848904 -0.18688773 -0.5902961 -0.19998485 0.56862026 -0.119201146 0.66245234 0.3461593
-0.37075832 -0.6032999 0.40890104 0.38981795 0.6610272 -0.5353468 -0.17956783 0.40792763
-0.51356286 -0.3252684 -0.16721846 -0.6494717 0.056433704 -0.4102784 0.08294517 0.09503903
0.40042093 -0.03485755 -0.51898676 0.18363659 -0.12932162 0.5136546 -0.11244695 -0.31144515
-0.0825779 -0.0062138783 -0.27964956 -0.45828265 -0.21239507 -0.27707186 0.22838272 0.16914104
0.37887412 0.007354035 -0.4223442 -0.52583873 -0.592656 0.64275247 0.6637787 -0.07761629
0.0074454094 0.1953932 -0.14037521 -0.12685426 -0.0841144 -0.39437178 0.5437676 0.10113018
-0.18833067 0.6516107 0.6238509 0.40328297 -0.2946293 0.7068398 -0.1903157 0.5095452
00000000: ca58 2ebf 740f 12bf d912 ccbe e989 d63e
00000010: 0582 28be 6ea0 0e3f b102 3abe b910 cbbd
00000020: e057 26bf 85fd f2be 6f5b 903d 5f02 e6bc
00000030: e531 703e f8fd a53e c078 12bf 4f76 e9be
00000040: 989b c63e aecc 0cbf bdec 8d3c 7276 303e
00000050: 8ab4 77be 8223 c2be c458 0f3e 55f9 d93e
00000060: 4d06 1fbe 9db9 1b3f 6774 90bd 4981 e83d
00000070: c1b4 5fbe 0faa 353d 0924 60be d654 303e
00000080: 6734 b73d 8d1a 21bf 19ec bb3d 9c5a 113e
00000090: 509b c33d 61bb 2b3f 3b2a 8a3e be9e 463e
000000a0: 2e9b 50be 5665 353e 0128 16bd afce e1bd
000000b0: 89b1 a3bd 4fc0 7d3e 315f f73e e056 93be
000000c0: 6272 33be 49f1 fdbe f27a bcbe ea1b 92bd
000000d0: c964 283e 8c4d c4bc 4cc1 aabd 5dbb a4be
000000e0: 6325 853e 63cb 943e 950a 81be 1a94 ea3d
000000f0: 865a 953e e83c 853e 2177 3dbe 9248 dabd
00000100: fd8f ebbe df08 32bf e419 ae3e d717 153f
00000110: b897 e73c c63d 0fbf be3c 303f 5015 0cbf
00000120: d81c a3be 3c43 dabe 9dfd 0abf 0668 c33e
00000130: 125c e33e 8125 453e dd4a f43d 44c5 f13e
00000140: 7713 263f a421 02bf 2c4d 0dbe 2876 1fbe
00000150: cbe8 13bf 8811 17bf 543f 323f 5ac7 aa3d
00000160: cc9c 113f 899a 19bf f233 bc3e 052d 1abd
00000170: 8477 d2be b5ab acbe 909b 91be 2ebe 133f
00000180: 42bc 8fbe 0928 18bf 123e 31be f2dd 563e
00000190: 1d31 00bf 58f7 1cbf c5c8 2dbe f023 6abd
000001a0: 2b03 133f 5b25 29bf 3e07 10be 69f6 113f
000001b0: a859 c0be 6138 afbc 4c35 abbe b2bb 82be
000001c0: bef9 22bf 8ef2 8cbd fb9a a6be 570b 413c
000001d0: 8502 153f dd54 3bbd 866a 713e b402 cfbe
000001e0: 6741 26bf 47bc 04bf e249 dfbe 9537 3c3d
000001f0: 3740 e73e 5b8d ddbe 050f 3a3e 774d 153e
00000200: 4360 a7be 38f0 673e f574 af3e 74d4 91bd
00000210: 3b06 a6be 04ca 73be 8b65 eabe cd71 103f
00000220: 1edf 2e3f 10bd f6be 3373 be3e 5436 d4be
00000230: 68f8 1b3f 78a7 36be 5390 83be 5fbb 103f
00000240: ba52 29bf 8eeb 253f a276 19bf 8e35 1abf
00000250: 002a 083e 5328 c6be c80e 7dbe 0663 21bf
00000260: 117d 18bd 8603 0bbf 313b dc3e 6f69 923e
00000270: 5a34 343c 5b52 bb3e a759 56be ef5b ee3e
00000280: c5b4 d83b 2635 ebbd e40a 14bf be30 64bd
00000290: 5ff1 de3d 24c7 2bbf bdf0 193d 9c33 693e
000002a0: dc26 993e e4cb 343f a380 373e 2b0b c43d
000002b0: e8e8 f1be 3f45 363e 226c b73e 49af 0d3f
000002c0: be2f 033f 39aa 2fbc 4a96 e83e fe05 f53e
000002d0: 04a9 c93e f8b8 26bf 82a9 153f 45a3 b0be
000002e0: 6047 82be bcc7 06bf 0bdc 703e 60dc a63e
000002f0: 0d6e 07bf eed6 99bd fb15 aebe 184c 003e
00000300: 5b10 c5be 7f5f 3fbe a51d 17bf d4c8 4cbe
00000310: 1991 113f bb1f f4bd 7a96 293f cb3b b13e
00000320: 09d4 bdbe dd71 1abf 7a5b d13e 3896 c73e
00000330: 1439 293f 7d0c 09bf a1e0 37be e4db d03e
00000340: db78 03bf 9489 a6be 513b 2bbe c743 26bf
00000350: 0727 673d 0310 d2be 28df a93d d3a3 c23d
00000360: f903 cd3e cac6 0ebd 51dc 04bf 3b0b 3c3e
00000370: e36c 04be de7e 033f 964a e6bd bd75 9fbe
00000380: 9a1e a9bd ca9d cbbb 3a2e 8fbe 06a4 eabe
00000390: 187e 59be 5ddc 8dbe 29dd 693e 4f33 2d3e
000003a0: cafb c13e 1efa f03b 803d d8be 5e9d 06bf
000003b0: 4eb8 17bf 6d8b 243f 67ed 293f 4af5 9ebd
000003c0: 9ff8 f33b 2815 483e 85be 0fbe 15e6 01be
000003d0: 2c44 acbd 19eb c9be 5a34 0b3f 571d cf3d
000003e0: c1d9 40be f5cf 263f b1b4 1f3f 1b7b ce3e
000003f0: a7d9 96be 74f3 343f 1ee2 42be 8e71 023f

weight f4 [160, 320]
0.03984931 -0.020810405 -0.05133305 -0.030010259 0.026721248 0.0221526 -0.01174597 -0.030414172
-0.018917449 0.04112358 0.043243602 0.0046236375 0.04093207 0.001811369 -0.0051233578 -0.055796582
-0.0542803 -0.026276665 -0.011416402 -0.0017653474 -0.006573958 0.0117985215 0.017987581 -0.047916885
-0.023138493 -0.023770595 0.014474758 -0.04481937 0.035024334 -0.010261596 -0.03624476 0.03159842
0.0004437159 0.030887902 0.04891254 0.018672707 0.048407502 0.054892704 0.050118804 0.05589668
-0.039524227 0.010345303 0.01754303 0.035422936 -0.051867872 0.00789375 -0.04304924 0.028097384
0.007594243 -0.02793287 -0.054623242 -0.014477224 -0.00447627 -0.00094534864 -0.033399083 0.048815925
-0.04108291 0.00851057 0.012047509 0.019242246 -0.012519374 0.055886317 0.05297391 -0.006408291
0.042297512 -0.034363385 0.0054724184 0.04523333 0.01315352 0.003070692 -0.028977325 -0.032955043
-0.0558346 -0.054671865 -0.05153816 0.023758713 0.02212428 0.03723215 0.014301928 -0.0078046923
0.020609459 0.051771376 -0.02961745 0.0074903914 0.00011706652 0.027789388 -0.018637653 -0.055694807
0.008849794 0.015777698 0.03555295 -0.009370806 -0.014994444 -0.014268667 0.024158653 0.03800277
-0.029238222 0.053876057 -0.03285792 -0.03595061 0.028721895 -0.043389454 0.04562767 0.006884167
-0.031745657 0.019545345 0.04705189 0.0011916502 0.004339425 0.044165477 0.053259436 -0.039747953
0.05374653 0.048782174 0.005217034 -0.04856076 -0.04701153 -0.020823779 0.03817356 -0.052763514
-0.027950976 0.039081853 0.054096226 0.025604801 -0.0355459 -0.037822556 0.04844176 -0.021888241
-0.016156146 -0.012498789 -0.048132464 -0.033227958 0.0024890979 -0.055875342 -0.0378799 0.031628393
-0.033765417 0.049797792 0.027937269 0.02894775 -0.00028178064 -0.016888646 0.03264298 0.02884921
0.009667961 -0.05052997 -0.031866558 -0.031957492 -0.0073942365 -0.051238682 -0.0027440293 0.031710893
0.038903944 -0.054894403 0.04195411 -0.03868383 0.025154674 -0.028011465 -0.04045954 -0.04396405
-0.028033582 -0.035418637 -0.04451145 -0.0007082901 -0.0070286226 -0.022184968 0.04117163 0.03834831
0.003817167 -0.018306114 0.018985795 -0.017504873 0.006053926 -0.037669934 -0.04514414 -0.02109721
-0.00410921 -0.050904542 -0.012126131 -0.0498827 0.008981261 0.014669374 -0.016294971 -0.012997536
0.042555835 -0.04520826 0.005432581 -0.035460472 0.009317521 -0.03443785 -0.009807745 0.0225559
-0.026624486 -0.027413044 -0.03586821 0.0021687993 0.036525693 0.018616483 0.037567172 -0.009080409
0.030833084 0.0049143815 0.005518473 -0.04520123 0.025479965 -0.012408578 0.0538112 -0.04845926
0.014419947 -0.034489848 0.024523553 0.00942785 0.045787256 0.007870372 -0.025166929 -0.0052175
0.041366685 -0.025108892 0.049203806 0.0026382518 -0.027957667 -0.019300396 0.0041092033 0.023691593
0.0063872393 -0.04168024 0.043843746 -0.05015119 -0.039985403 0.009024737 0.002475337 -0.012696836
-0.03206909 -0.0077184536 0.020322213 0.046367377 -0.04712954 -0.026634742 -0.026568975 -0.009087579
0.051290456 0.025887128 0.03229252 0.032865625 -0.048453912 -0.0139624635 0.013752067 0.022215689
-0.03367892 -0.035885297 -0.023835707 -0.029880604 0.04151497 -0.015434841 -0.001204605 0.055768047
00000000: 0839 233d 957a aabc 9b42 52bd 13d8 f5bc
00000010: 85e6 da3c 5f79 b53c 2b72 40bc 2427 f9bc
00000020: c4f8 9abc 3371 283d 3420 313d e281 973b
00000030: 63a8 273d 756b ed3a d7e1 a7bb f58a 64bd
00000040: 0555 5ebd 2942 d7bc dc0b 3bbc 3b63 e7ba
00000050: 5b6a d7bb 964e 413c b15a 933c 7f44 44bd
00000060: f08c bdbc 8dba c2bc 8927 6d3c 8494 37bd
00000070: ad75 0f3d 4120 28bc 6375 14bd 586d 013d
00000080: 8aa2 e839 a008 fd3c 8458 483d 81f7 983c
00000090: f246 463d 2cd7 603d 6049 4d3d ebf3 643d
000000a0: 28e4 21bd 597f 293c 67b6 8f3c a417 113d
000000b0: 6873 54bd ca54 013c 6654 30bd 7c2c e63c
000000c0: 21d9 f83b 79d3 e4bc 9fbc 5fbd e131 6dbc
000000d0: adad 92bb 46d1 77ba 7acd 08bd 35f3 473d
000000e0: 8e46 28bd eb6f 0b3c ea62 453c eaa1 9d3c
000000f0: 0f1e 4dbc 0de9 643d 2cfb 583d a4fc d1bb
00000100: 2840 2d3d 9fc0 0cbd f951 b33b 9646 393d
00000110: dd81 573c aa3d 493b db61 edbc defb 06bd
00000120: d2b2 64bd 9bef 5fbd ad19 53bd a2a1 c23c
00000130: fa3d b53c bd80 183d a252 6a3c 81be ffbb
00000140: 2bd5 a83c 390e 543d 4ba0 f2bc f571 f53b
00000150: 9c81 f538 92a6 e33c fead 98bc 3d20 64bd
00000160: bafe 103c 3b40 813c f89f 113d 0288 19bc
00000170: 42ab 75bc 21c7 69bc 5ee8 c53c cba8 1b3d
00000180: ff84 efbc 24ad 5c3d 0796 06bd f240 13bd
00000190: 2e4a eb3c 24b9 31bd 14e4 3a3d 9494 e13b
000001a0: bc07 02bd 8f1d a03c 7cb9 403d 2531 9c3a
000001b0: bc31 8e3b dce6 343d 9126 5a3d c0ce 22bd
000001c0: 5225 5c3d d1cf 473d a7f3 aa3b a6e7 46bd
000001d0: 298f 40bd a196 aabc e15b 1c3d 8e1e 58bd
000001e0: 72f9 e4bc 4b14 203d 0194 5d3d 29c1 d13c
000001f0: 9498 11bd d3eb 1abd de6a 463d f84e b3bc
00000200: e559 84bc b8c7 4cbc 8c26 45bd 0a1a 08bd
00000210: 2220 233b 8bdd 64bd f427 1bbd c68c 013d
00000220: 9b4d 0abd c5f8 4b3d b3dc e43c d523 ed3c
00000230: f5bb 93b9 0f5a 8abc a5b4 053d 2e55 ec3c
00000240: 5e66 1e3c 84f8 4ebd 8286 02bd dce5 02bd
00000250: 5a4b f2bb a7df 51bd 2cd5 33bb 48e3 013d
00000260: be59 1f3d f4d8 60bd 13d8 2b3d f072 1ebd
00000270: 2d11 ce3c 4d78 e5bc e7b8 25bd a613 34bd
00000280: afa6 e5bc 2213 11bd a351 36bd 8bac 39ba
00000290: 5c50 e6bb 40bd b5bc 95a3 283d 1e13 1d3d
000002a0: 6f29 7a3b b4f6 95bc 1988 9b3c 6166 8fbc
000002b0: 0360 c63b ca4b 1abd 10e9 38bd 0ed4 acbc
000002c0: 8da6 86bb 4881 50bd aeac 46bc cd51 4cbd
000002d0: 2426 133c d057 703c 087d 85bc 9ef3 54bc
000002e0: 074f 2e3d 4c2c 39bd cb03 b23b 003f 11bd
000002f0: 84a8 183c b40e 0dbd aab0 20bc 27c7 b83c
00000300: 981b dabc 5291 e0bc 8bea 12bd 6a22 0e3b
00000310: f79b 153d 9881 983c 09e0 193d ffc5 14bc
00000320: aa95 fc3c d208 a13b 4fd4 b43b ed24 39bd
00000330: 5cbb d03c 594d 4bbc 2269 5c3d 387d 46bd
00000340: a441 6c3c 3a45 0dbd 9ee5 c83c 4577 1a3c
00000350: 6b8b 3b3d bcf2 003c e02a cebc 90f7 aabb
00000360: 1d70 293d 2ab1 cdbc ee89 493d 85e6 2c3b
00000370: 7a07 e5bc dd1b 9ebc 7fa6 863b df14 c23c
00000380: 0c4c d13b e6b8 2abd 8095 333d 566b 4dbd
00000390: bcc7 23bd 7edc 133c 4339 223b 6406 50bc
000003a0: e15a 03bd 15eb fcbb c57a a63c b8eb 3d3d
000003b0: e80a 41bd 1a31 dabc 2ea7 d9bc 12e4 14bc
000003c0: f115 523d 3e11 d43c 2945 043d 1b9e 063d
000003d0: 9c77 46bd d1c2 64bc 5a50 613c adfd b53c
000003e0: e8f2 09bd 76fc 12bd 1a43 c3bc 2bc8 f4bc
000003f0: 9a0b 2a3d 6ae2 7cbc d6e3 9dba 096d 643d

bias f4 [160]
-0.028873341 0.014598476 0.011821553 0.05454315 0.038729925 -0.017698443 0.027555361 0.00627607
-0.02224463 -0.006102 0.029131284 0.03656022 0.053051617 -0.013193937 -0.049772516 0.016957492
0.04386527 0.016750595 0.0184537 0.05385195 0.030805688 -0.0116208 0.017533628 0.032042887
-0.030108914 -0.053253863 -0.005564515 0.028549757 0.045465887 -0.050466266 -0.0003033187 0.003912369
0.029146824 -0.046993647 0.0005747502 -0.041300353 0.0022449757 0.04897295 -0.007898788 0.04847686
-0.025520261 -0.023470048 0.008173471 -0.03721357 -0.045430694 0.043132585 0.014134434 -0.048088923
0.030477546 0.040340435 -0.044116464 -0.0026314144 -0.055664655 -0.011822646 -0.031893693 0.034552023
-0.038736124 -0.04809836 -0.0029279825 0.01770292 0.033605423 0.026027612 -0.028564764 0.017551228
0.0393321 0.004865501 0.018998696 0.051683433 -0.0515855 0.005277416 -0.03205403 0.027873028
-0.050110348 -0.0055569247 -0.015198076 0.021677932 0.04221572 -0.012987786 0.005235593 0.042256203
-0.014006299 -0.009494596 0.04176372 -0.00380102 -0.005105925 -0.0009259431 0.043801837 0.0029995805
0.032823592 -0.037222434 0.025426125 -0.027866723 -0.026253356 0.02451409 0.05312325 0.048151065
-0.0085303355 0.04502047 -0.028187161 0.04274904 0.048930846 0.034348305 0.027076432 0.047170024
-0.0057168608 0.038938735 0.042313114 0.015953334 0.0051058647 -0.015132502 0.042036705 -0.011047802
-0.04741114 0.0021456487 -0.030314857 0.028764678 0.017179757 -0.031988114 -0.0013004333 -0.027934682
0.0009730975 0.024236195 -0.0072938497 0.049666945 -0.045442015 -0.025111584 0.011038032 0.03807624
0.043604497 -0.036900666 -0.0381182 -0.01635202 -0.03616186 -0.04155275 0.018616023 -0.023650602
-0.054701652 -0.049412914 -0.03509875 -0.015471307 0.053612076 0.018829044 0.0017397843 0.05217067
0.040614024 0.036390435 0.033075728 -0.006596342 0.022412105 -0.008230588 0.008430135 0.041380327
-0.01750526 0.021934915 -0.0015894511 0.051742475 0.050178647 0.00080419175 -0.001795322 0.05551982
00000000: c987 ecbc 722e 6f3c 30af 413c a368 5f3d
00000010: 45a3 1e3d 53fc 90bc c8bb e13c 7ea7 cd3b
00000020: 5f3a b6bc 49f3 c7bb bba4 ee3c 2bc0 153d
00000030: a74c 593d 622b 58bc 44de 4bbd 70ea 8a3c
00000040: 12ac 333d 8b38 893c 372c 973c dd93 5c3d
00000050: 365c fc3c 2b65 3ebc afa2 8f3c 673f 033d
00000060: f8a6 f6bc b920 5abd 8956 b6bb 2ee1 e93c
00000070: 703a 3a3d b7b5 4ebd bf06 9fb9 5433 803b
00000080: 52c5 ee3c 697c 40bd d5aa 163a 8f2a 29bd
00000090: 7120 133b dc97 483d eb69 01bc ac8f 463d
000000a0: de0f d1bc 4244 c0bc 06ea 053c 426d 18bd
000000b0: 8915 3abd cbab 303d 1d94 673c e4f8 44bd
000000c0: 0cac f93c 033c 253d 77b3 34bd cf73 2cbb
000000d0: 9f00 64bd c5b3 41bc f6a2 02bd 6c86 0d3d
000000e0: c5a9 1ebd c902 45bd 65e3 3fbb b705 913c
000000f0: d7a5 093d dc37 d53c a700 eabc 98c7 8f3c
00000100: b21a 213d c86e 9f3b 27a3 9b3c 02b2 533d
00000110: 514b 53bd 2dee ac3b 164b 03bd fa55 e43c
00000120: 8240 4dbd dd16 b6bb 5a01 79bc eb95 b13c
00000130: 64ea 2c3d b9ca 54bc 568f ab3b d714 2d3d
00000140: ad7a 65bc 398f 1bbc 6f10 2b3d 891a 79bb
00000150: 9a4f a7bb fdba 72ba 8e69 333d 9c94 443b
00000160: 0872 063d 8d76 18bd 734a d03c c148 e4bc
00000170: 4711 d7bc c6d1 c83c c497 593d 0d3a 453d
00000180: d2c2 0bbc 6267 383d c3e8 e6bc 9e19 2f3d
00000190: b66b 483d cfb0 0c3d 65cf dd3c 5b35 413d
000001a0: 8154 bbbb 397e 1f3d 8450 2d3d 91b0 823c
000001b0: 194f a73b 50ee 77bc ae2e 2c3d d701 35bc
000001c0: 2f32 42bd 039e 0c3b dd56 f8bc e7a3 eb3c
000001d0: 90bc 8c3c f805 03bd 4d73 aaba 46d7 e4bc
000001e0: 7817 7f3a fc8a c63c 3f01 efbb 916f 4b3d
000001f0: 6821 3abd cfb6 cdbc ddd8 343c d5f5 1b3d
00000200: a19a 323d 2725 17bd d421 1cbd acf4 85bc
00000210: 751e 14bd 3733 2abd a180 983c e8be c1bc
00000220: d70e 60bd 3265 4abd b5c3 0fbd 5d7b 7dbc
00000230: 5698 5b3d 5e3f 9a3c 7909 e43a eab0 553d
00000240: e45a 263d 230e 153d 6a7a 073d 2126 d8bb
00000250: 9799 b73c 97d9 06bc 8d1e 0a3c 6b7e 293d
00000260: 3167 8fbc dab0 b33c 2155 d0ba ebef 533d
00000270: 2088 4d3d 65d0 523a 0351 ebba c068 633d

weight f4 [80, 160]
-0.014723477 0.027435238 0.07270978 -0.021376953 -0.0006212513 -0.02439874 0.068178594 0.029762574
0.014591546 0.062296916 -0.06175905 -0.006881225 0.031516686 0.07114991 0.0747289 -0.025514938
-0.05042657 0.024671338 -0.011898903 0.037586022 0.00044548768 -0.03642027 -0.052834738 0.020041931
-0.055490464 0.0051593073 0.06291235 -0.07357071 0.03176086 0.03106182 -0.02856003 0.0042199004
0.0336193 0.034887716 0.039616928 -0.056764312 0.043234725 -0.075630926 0.055189498 0.0634579
0.03024164 -0.040765837 -0.04613261 -0.019080473 -0.014275793 0.057841226 -0.07675386 -0.021002026
0.009268142 0.028581178 -0.008226038 0.077745214 -0.055948004 -0.0687692 -0.047454864 -0.053918988
0.0022482474 0.07454969 -0.0726938 0.07492874 0.009301259 0.07559114 -0.036590286 -0.022234933
-0.04080884 0.075578436 0.028900191 0.04665636 -0.072065175 0.039813716 0.057438858 -0.036735743
0.05092401 0.030378105 0.037438042 -0.01360545 0.060532156 0.03128595 -0.04379518 -0.02023566
-0.05182012 -0.045554824 -0.06339814 -0.05345006 -0.048448034 -0.03591558 -0.0410349 -0.063089296
-0.02791927 0.029473897 0.015103719 0.038968194 -0.053764425 0.008065071 -0.0029553636 0.038117018
0.05337478 0.035509355 -0.025218666 0.018456366 0.036572248 0.008282527 0.013763562 0.041243877
0.044015974 -0.025713507 0.018532176 0.06262113 0.067226276 -0.006192948 0.05744601 0.047714747
-0.03148384 0.0777726 -0.05737861 -0.023605853 0.07046515 0.0015770189 0.05072201 0.015817536
-0.07177852 0.06557346 -0.068757325 0.078651 -0.020142103 -0.032195624 -0.05248845 0.016650176
-0.014986509 -0.07489344 -0.050393138 0.011948108 -0.009686092 -0.032821406 -0.0128979 0.029765164
-0.07874587 -0.06888202 -0.045385055 0.07116444 0.053093206 0.043243397 0.0037514737 -0.0674183
0.049766816 0.0264724 0.03848355 -0.013638633 -0.008820845 -0.06941636 -0.06464983 0.059978165
-0.023680238 -0.07100168 0.0057766004 0.060466092 -0.016162232 0.04120224 -0.07455783 0.0076971264
-0.016424067 -0.011858529 0.007796393 -0.06847284 0.008613425 -0.06243831 0.03786 0.05158807
0.0113345375 -0.020029154 0.041926008 -0.014197533 -0.04537516 0.067431755 -0.053717278 -0.054208867
-0.03977899 -0.055089977 -0.008434297 -0.0049847593 -0.0044330033 -0.07103729 0.05490278 -0.016719671
-0.0036813568 -0.014366342 -0.025493365 0.051900674 -0.029484585 0.059172943 0.035218142 -0.02339162
0.025805697 0.015727855 0.03510002 0.06424469 -0.034424484 0.049718887 -0.07549827 -0.006427689
0.013869736 -0.036194436 -0.029901253 -0.021487087 -0.065866075 0.06902189 -0.047519166 -0.0073084673
-0.013104161 0.06441656 0.031596396 -0.06585098 0.050628673 0.03784835 -0.05245107 -0.07632367
-0.0351342 0.045563713 0.016761128 0.049340058 0.0018212973 -0.025261385 -0.0021165425 -0.07444556
0.015519596 -0.00021740026 0.014011544 0.07356304 0.063305594 0.044901926 -0.008363775 0.06353293
0.047330875 0.07676367 0.031996947 -0.030781286 0.045576982 0.056228332 0.05811776 0.07430587
0.060972206 -0.06767644 -0.07224823 -0.017023463 0.0103878835 -0.045658115 -0.0021165237 0.05122739
0.011003291 -0.014820349 0.023977539 0.05376645 -0.042749573 -0.0023287877 -0.029021295 -0.058461934
00000000: bd3a 71bc ddbf e03c dde8 943d b81e afbc
00000010: 78db 22ba dedf c7bc 38a1 8b3d a4d0 f33c
00000020: 6111 6f3c 0d2b 7f3d 0ff7 7cbd e67b e1bb
00000030: a417 013d 0bb7 913d 770b 993d b404 d1bc
00000040: 178c 4ebd 8c1b ca3c 9ef3 42bc cdf3 193d
00000050: 5890 e939 6c2d 15bd 3d69 58bd fa2e a43c
00000060: f849 63bd 680f a93b 31d8 803d 3eac 96bd
00000070: ad17 023d 5c75 fe3c b9f6 e9bc 1747 8a3b
00000080: 64b4 093d 6ce6 0e3d 5c45 223d b281 68bd
00000090: e516 313d 63e4 9abd 620e 623d 37f6 813d
000000a0: 51bd f73c 14fa 26bd 8cf5 3cbd a74e 9cbc
000000b0: 04e5 69bc ecea 6c3d 2131 9dbd 710c acbc
000000c0: 68d9 173c 1323 ea3c 81c6 06bc e238 9f3d
000000d0: bc29 65bd ded6 8cbd 0860 42bd 28da 5cbd
000000e0: 5557 133b 82ad 983d 7de0 94bd 3d74 993d
000000f0: 4f64 183c 87cf 9a3d b2df 15bd 0926 b6bc
00000100: 2c27 27bd dec8 9a3d 18c0 ec3c bd1a 3f3d
00000110: e896 93bd b513 233d 0245 6b3d 3878 16bd
00000120: b295 503d 81db f83c a258 193d 65e9 5ebc
00000130: 91f0 773d b225 003d 9362 33bd 41c5 a5bc
00000140: 5641 54bd b297 3abd e2d6 81bd 73ee 5abd
00000150: 7271 46bd 371c 13bd 3614 28bd f634 81bd
00000160: f4b6 e4bc 3e73 f13c 9775 773c 1d9d 1f3d
00000170: 1638 5cbd 5c23 043c c6ae 41bb 9720 1c3d
00000180: 839f 5a3d 4272 113d 6097 cebc ce31 973c
00000190: c8cc 153d 70b3 073c 9080 613c 57ef 283d
000001a0: 184a 343d 22a5 d2bc cad0 973c 823f 803d
000001b0: eead 893d 37ee cabb 824c 6b3d 8a70 433d
000001c0: 33f5 00bd 3e47 9f3d d505 6bbd 1061 c1bc
000001d0: 0850 903d f9b3 ce3a e2c1 4f3d c793 813c
000001e0: 9e00 93bd 614b 863d a4d0 8cbd c713 a13d
000001f0: 0d01 a5bc 8fdf 03bd 21fe 56bd f365 883c
00000200: fa89 75bc bb61 99bd 0969 4ebd ffc1 433c
00000210: 6ab2 1ebc bd6f 06bd b751 53bc 13d6 f33c
00000220: 8445 a1bd 0412 8dbd aee5 39bd a9be 913d
00000230: 4378 593d fd1f 313d 49db 753b 9b12 8abd
00000240: 4ad8 4b3d a6dc d83c eda0 1d3d 9374 5fbc
00000250: 4e85 10bc 2a2a 8ebd 2167 84bd aaab 753d
00000260: 0ffd c1bc 5469 91bd a349 bd3b 4bab 773d
00000270: a866 84bc aec3 283d c7b1 98bd 2d38 fc3b
00000280: c48b 86bc 474a 42bc e278 ff3b 7d3b 8cbd
00000290: 531f 0d3c 50bf 7fbd 1613 1b3d 034e 533d
000002a0: 7fb4 393c 2e14 a4bc 9bba 2b3d c59c 68bc
000002b0: 4edb 39bd a919 8a3d a606 5cbd 1e0a 5ebd
000002c0: 4bef 22bd 07a6 61bd 0130 0abc 3157 a3bb
000002d0: ba42 91bb 007c 91bd bde1 603d b1f7 88bc
000002e0: eb42 71bb ce60 6bbc 76d7 d0bc cd95 543d
000002f0: a889 f1bc 545f 723d e640 103d c89f bfbc
00000300: 7866 d33c b4d7 803c 0ac5 0f3d b892 833d
00000310: b000 0dbd 08a6 4b3d d69e 9abd 5d9f d2bb
00000320: e43d 633c 9e40 14bd 79f3 f4bc b005 b0bc
00000330: cbe4 86bd 595b 8d3d 75a3 42bd de7b efbb
00000340: d6b2 56bc d4ec 833d 396b 013d e1dc 86bd
00000350: 0360 4f3d df06 1b3d efd6 56bd 964f 9cbd
00000360: e1e8 0fbd 04a1 3a3d a24e 893c cd18 4a3d
00000370: 99b8 ee3a f7f0 cebc b1b5 0abb ea76 98bd
00000380: e745 7e3c f0f5 63b9 ad90 653c 38a8 963d
00000390: 5da6 813d 15eb 373d 3708 09bc 8e1d 823d
000003a0: 05de 413d 4536 9d3d 3b0f 033d 0929 fcbc
000003b0: eeae 3a3d ae4f 663d e30c 6e3d ad2d 983d
000003c0: febd 793d f299 8abd e1f6 93bd ca74 8bbc
000003d0: f131 2a3c 0104 3bbd 60b5 0abb d0d3 513d
000003e0: 2647 343c 0dd1 72bc 8b6c c43c 363a 5c3d
000003f0: 2d1a 2fbd 939e 18bb 11be edbc c875 6fbd

bias f4 [80]
0.03225312 -0.041138455 0.04370029 0.032715496 -0.018120766 0.029779123 -0.003426542 -0.0036790667
-0.072792426 0.07786299 -0.049610563 0.005995631 0.06347271 0.036364444 0.040211327 0.056980826
0.058101546 -0.07275435 0.012699151 -0.0051043257 -0.06325581 -0.072162814 0.075431496 0.04256117
-0.068451695 -0.059986796 0.042885225 -0.021228379 -0.059424374 0.037705854 0.02104486 0.0125303995
-0.0012004607 0.0054888004 -0.0028370037 -0.07058056 -0.009366834 -0.037932914 -0.009174002 -0.009473281
0.03566004 0.031546183 -0.0108250305 0.024038758 -0.038799584 0.008030521 -0.022410434 0.060615353
-0.047341008 -0.029181866 -0.043487836 0.037543643 -0.064861916 0.010454522 -0.03847255 -0.03600712
-0.03786669 0.0365141 0.0009291062 -0.055886604 0.049846124 -0.0035064698 -0.05631003 -0.0061216154
-0.025331974 0.025671456 0.057799857 0.04583209 0.04000914 0.033471778 -0.043175373 -0.010690809
0.007141214 -0.016068082 -0.036276523 0.024401436 -0.044171013 0.021242177 -0.07315906 -0.030818833
00000000: d91b 043d cc80 28bd 13ff 323d af00 063d
00000010: 0072 94bc 59f3 f33c d68f 60bb 7f1c 71bb
00000020: 3214 95bd a276 9f3d 7234 4bbd 0077 c43b
00000030: fbfd 813d e2f2 143d a2b4 243d ba64 693d
00000040: e3fb 6d3d 3c00 95bd 1a10 503c 3042 a7bb
00000050: 438c 81bd 19ca 93bd d47b 9a3d 9f54 2e3d
00000060: 6730 8cbd b7b4 75bd 6ba8 2f3d 23e7 adbc
00000070: f966 73bd 7471 1a3d 4566 ac3c 4e4c 4d3c
00000080: c758 9dba 65db b33b 06ed 39bb 8a8c 90bd
00000090: 5977 19bc 8b5f 1bbd 8e4e 16bc d235 1bbc
000000a0: 4310 123d 9236 013d 785b 31bc eeec c43c
000000b0: 50ec 1ebd 7292 033c 1696 b7bc ce47 783d
000000c0: a5e8 41bd cf0e efbc 4d20 32bd 5dc7 193d
000000d0: 53d6 84bd 7249 2b3c 6595 1dbd 347c 13bd
000000e0: 1a1a 1bbd cf8f 153d 438f 733a 5ae9 64bd
000000f0: 732b 4c3d cdcc 65bb 59a5 66bd d597 c8bb
00000100: 0085 cfbc f24c d23c 8bbf 6c3d 6eba 3b3d
00000110: a0e0 233d b419 093d a9d8 30bd 8128 2fbc
00000120: d800 ea3b 36a1 83bc b196 14bd 85e5 c73c
00000130: aaec 34bd 1304 ae3c 6bd4 95bd c777 fcbc

weight f4 [40, 80]
0.06186166 0.008939172 0.013416235 0.034613706 0.09686133 0.07878367 -0.054844573 -0.01901529
-0.07228989 0.043828793 -0.0029709053 0.01755658 0.04663422 0.10113469 -0.093104206 -0.03752638
-0.08125087 -0.0661011 0.00599279 0.058641776 -0.09965139 0.106283255 0.09945555 -0.050963726
0.005011796 -0.07998525 0.016141785 0.05763835 -0.07774844 -0.07451983 -0.011055312 0.08573381
-0.10264395 -0.07623101 0.08432553 0.094408244 0.03551176 -0.101173624 -0.04331797 0.07062816
-0.09340306 -0.032194592 -0.022502469 -0.047495633 0.03513935 0.044496194 -0.056397606 0.0026051581
0.11082419 0.055374097 0.04855189 0.007122685 0.021471107 -0.036349997 -0.0656114 0.099745795
0.021139028 0.097546406 0.052515708 -0.010913769 0.031078119 -0.083176635 -0.08421224 -0.011070333
0.015145823 -0.09935627 -0.04351409 -0.0051636286 -0.044104535 0.030971361 -0.07477975 -0.064535074
0.019032042 0.039627712 -0.0001230308 -0.00039052384 -0.08907649 0.07973625 0.07526924 0.07062472
0.044330366 0.06694912 -0.08633393 0.028534297 0.016312677 -0.042083863 0.009083434 -0.08292358
0.027900683 0.06359022 -0.075089596 0.014132882 0.031424914 0.022146065 -0.03717047 0.03695557
0.068049066 -0.10319727 0.07617924 0.09335226 0.07244688 0.03766498 -0.008727323 -0.00080523797
0.03161938 0.03274709 -0.057557784 0.030339094 -0.033022888 0.01786563 -0.019167695 -0.071057655
-0.07952573 -0.047986917 -0.018274572 0.1084576 0.040720277 0.09057903 0.034073763 0.10228279
0.04935497 0.08452427 -0.10797081 0.08505367 0.1004734 0.06427936 -0.00038263365 0.07818088
0.025441293 -0.07336181 0.035525873 -0.038361125 -0.05001717 -0.0026260433 -0.01136828 0.027720902
-0.07235374 -0.0209024 0.08794959 0.059216134 0.042267483 0.0513989 -0.10307658 0.0042976947
0.0537892 0.025295604 -0.0029192592 0.040016785 -0.108805954 0.06984168 -0.10209704 0.09285111
-0.058559824 0.07157371 -0.09116541 0.07907015 -0.11072696 0.019687647 -0.06360221 -0.055071153
-0.027981771 0.0030987475 -0.0026217783 -0.0058843936 -0.1087588 0.0612671 -0.0747176 0.0010696789
0.08622437 -0.07705633 0.049275775 0.05679554 -0.06371659 0.08004134 -0.025506653 -0.10826496
0.048259076 0.036037415 -0.046931393 0.10503549 -0.006097948 -0.029750677 0.070613734 0.013454793
0.033115905 -0.084009975 -0.07768547 -0.034574028 -0.06628676 0.07501353 -0.09663762 -0.10304758
-0.08513436 -0.011917608 -0.09172069 0.035283677 0.01408097 0.05465284 0.110524856 -0.08145064
-0.01612274 -0.08638296 -0.093608126 -0.07791898 -0.009080969 -0.059517667 -0.011840238 0.03742951
-0.006880542 -0.0987337 -0.056468245 0.04294532 -0.058197208 0.031391725 -0.02151765 0.046392396
0.013094337 0.029113397 -0.094527185 0.06582068 -0.100793734 0.060558718 0.07329743 -0.04003815
0.09861138 0.068359025 -0.027464844 0.04351945 -0.08680389 -0.08616283 -0.03715926 -0.059156425
-0.029601656 0.038454916 -0.017016156 -0.09128854 -0.029114438 -0.04035737 -0.071877696 0.041502137
0.027191846 0.03975706 -0.073248416 0.10036876 -0.042920824 0.053060383 -0.09349728 0.031624287
-0.0028500604 0.09159581 0.0053882184 -0.032948665 0.08827815 -0.03630779 0.08253923 -0.030883063
00000000: a762 7d3d 9b75 123c c5cf 5b3c 1ac7 0d3d
00000010: 3c5f c63d 5559 a13d b4a4 60bd f4c5 9bbc
00000020: b90c 94bd d285 333d 85b3 42bb d1d2 8f3c
00000030: 8603 3f3d b41f cf3d 6bad bebd 43b5 19bd
00000040: db66 a6bd 0360 87bd 2b5f c43b 5c32 703d
00000050: 0716 ccbd 09ab d93d 5aaf cb3d 57bf 50bd
00000060: fe39 a43b 4fcf a3bd c73b 843c 3116 6c3d
00000070: 933a 9fbd da9d 98bd 5721 35bc 3595 af3d
00000080: fe36 d2bd 011f 9cbd ddb2 ac3d 1c59 c13d
00000090: c774 113d 1e34 cfbd 2f6e 31bd 7fa5 903d
000000a0: 1b4a bfbd 7ade 03bd 1957 b8bc c88a 42bd
000000b0: 47ee 0f3d a441 363d 2d01 67bd 4dbb 2a3b
000000c0: cbf7 e23d f3cf 623d 59de 463d 6a65 e93b
000000d0: 2de4 af3c bce3 14bd 455f 86bd 8647 cc3d
000000e0: c12b ad3c 69c6 c73d b61a 573d aacf 32bc
000000f0: 8a97 fe3c 8358 aabd 7877 acbd 5860 35bc
00000100: 3026 783c 4d7b cbbd d53b 32bd a833 a9bb
00000110: f5a6 34bd a7b7 fd3c 2026 99bd f72a 84bd
00000120: 16e9 9b3c ab50 223d d401 01b9 39bf ccb9
00000130: bc6d b6bd c24c a33d c226 9a3d b1a3 903d
00000140: c293 353d 9f1c 893d d8cf b0bd c2c0 e93c
00000150: 2aa2 853c 2160 2cbd afd2 143c d7d3 a9bd
00000160: f98f e43c 973b 823d 93c8 99bd 9a8d 673c
00000170: 69b7 003d aa6b b53c 1040 18bd b95e 173d
00000180: 4f5d 8b3d 1759 d3bd dd03 9c3d 782f bf3d
00000190: 085f 943d 9846 1a3d 0cfd 0ebc 9b16 53ba
000001a0: 5383 013d d021 063d b6c1 6bbd b189 f83c
000001b0: 0243 07bd f15a 923c 9205 9dbc ad86 91bd
000001c0: 63de a2bd ee8d 44bd 8eb4 95bc 051f de3d
000001d0: 4eca 263d 8081 b93d ee90 0b3d a479 d13d
000001e0: 7028 4a3d 0f1b ad3d cd1f ddbd 9e30 ae3d
000001f0: ffc4 cd3d e6a4 833d 389c c8b9 4c1d a03d
00000200: 426a d03c b73e 96bd 9483 113d 8e20 1dbd
00000210: cede 4cbd b219 2cbb 0642 3abc f216 e33c
00000220: 332e 94bd 833b abbc ea1e b43d 9e8c 723d
00000230: ab20 2d3d a787 523d d019 d3bd add3 8c3b
00000240: 1052 5c3d ba38 cf3c 0b51 3fbb a4e8 233d
00000250: a8d5 debd 2809 8f3d 4118 d1bd b928 be3d
00000260: 6ddc 6fbd 3d95 923d eeb4 babd 88ef a13d
00000270: d1c4 e2bd fd47 a13c e041 82bd 4a92 61bd
00000280: 073a e5bc 5b14 4b3b 24d2 2bbb dfd1 c0bb
00000290: efbc debd 36f3 7a3d 8b05 99bd 7834 8c3a
000002a0: 6796 b03d b6cf 9dbd 65d5 493d 71a2 683d
000002b0: d87d 82bd b7ec a33d 54f3 d0bc 05ba ddbd
000002c0: 4fab 453d f89b 133d 223b 40bd d91c d73d
000002d0: 4cd1 c7bb b1b7 f3bc ef9d 903d 7e71 5c3c
000002e0: 8ba4 073d 6c0d acbd 8f19 9fbd 7f9d 0dbd
000002f0: 5ac1 87bd b2a0 993d f2e9 c5bd 9c0a d3bd
00000300: ec5a aebd 1242 43bc 0fd8 bbbd 9e85 103d
00000310: deb3 663c a8db 5f3d db5a e23d 98cf a6bd
00000320: d613 84bc 8de9 b0bd 9eb5 bfbd fc93 9fbd
00000330: 58c8 14bc ccc8 73bd 8ffd 41bc b04f 193d
00000340: 2b76 e1bb e534 cabd 3f4b 67bd 6fe7 2f3d
00000350: 3260 6ebd 9c94 003d c845 b0bc f405 3e3d
00000360: a189 563c 387f ee3c 7897 c1bd fecc 863d
00000370: f26c cebd 6b0c 783d f71c 963d 0bff 23bd
00000380: c3f4 c93d d1ff 8b3d f4fd e0bc 7341 323d
00000390: 3dc6 b1bd 2376 b0bd 4f34 18bd 024e 72bd
000003a0: 2c7f f2bc e782 1d3d 7765 8bbc 7cf5 babd
000003b0: 6781 eebc c54d 25bd 9d34 93bd 25fe 293d
000003c0: 6fc1 de3c 4dd8 223d 4403 96bd 238e cd3d
000003d0: bfcd 2fbd d855 593d 807b bfbd 7888 013d
000003e0: 14c8 3abb 9696 bb3d a78f b03b 2ef5 06bd
000003f0: 2dcb b43d 7ab7 14bd 540a a93d 7afe fcbc

bias f4 [40]
-0.09759324 -0.09666076 -0.08268113 -0.058624264 0.10215556 0.08416533 -0.01870708 0.036876146
0.087399065 0.011932388 0.094518974 0.0184046 0.10582495 0.049925942 0.035757754 0.0032450224
0.012967815 -0.08076031 0.08478668 -0.0005431561 0.011143104 0.11072953 -0.0035564178 -0.10326369
-0.10235831 -0.0120228855 0.03844517 0.02914188 -0.03211124 -5.969613e-05 0.0014294151 0.04728228
-0.030232057 -0.09228551 -0.07166539 0.09744374 0.10146465 -0.05086406 0.010646743 -0.044430472
00000000: f7de c7bd 14f6 c5bd b954 a9bd ff1f 70bd
00000010: ef36 d13d df5e ac3d 973f 99bc 710b 173d
00000020: 48fe b23d 1080 433c 2a93 c13d 3ec5 963c
00000030: c0ba d83d 257f 4c3d b976 123d 71aa 543b
00000040: f576 543c a965 a5bd a4a4 ad3d 9762 0eba
00000050: 9191 363c 2ac6 e23d ca12 69bb ea7b d3bd
00000060: 3ca1 d1bd a3fb 44bc af78 1d3d f4ba ee3c
00000070: 1387 03bd 3b62 7ab8 365b bb3a 10ab 413d
00000080: 38a9 f7bc 2f00 bdbd 4ec5 92bd 9590 c73d
00000090: b3cc cf3d d556 50bd ad6f 2e3c bafc 35bd

weight f4 [20, 40]
0.014599481 0.10006473 0.10567358 0.014075979 0.12531899 0.13771537 0.09229922 -0.14436688
-0.08847227 0.11314343 -0.0026964303 -0.12854573 0.023654407 0.08256311 0.13232915 0.050437838
-0.08296436 -0.09395404 -0.07849388 -0.06324495 -0.0654659 -0.0060403496 0.15465018 -0.08283821
0.12364938 -0.06306845 0.034288604 0.12712842 -0.06863328 -0.08896558 0.06534663 -0.080325566
-0.11903908 0.02058334 0.02730341 -0.0063684476 0.10512712 -0.12325399 0.064679325 -0.14204705
-0.1509096 -0.14997032 -0.1310565 0.14221944 -0.054963946 0.020287605 0.08772285 0.10638401
-0.037193555 -0.043749265 -0.031584445 -0.007923856 0.13556544 -0.06420325 -0.026792895 -0.13885526
-0.11551029 0.0333739 0.049738817 0.10334858 -0.12492983 0.10210039 -0.08112767 -0.056585304
0.08074599 -0.0072266078 0.0244482 0.014607209 -0.030175 0.092025995 -0.023782125 -0.15660521
-0.056866076 0.15015885 0.108917035 0.121720806 -0.07815251 0.11723692 0.12739877 0.1032806
0.09270438 -0.035800245 0.13511293 0.006499125 0.063661955 0.124221325 0.07934203 -0.1280346
-0.08273314 -0.002381658 0.12606114 -0.0078101805 -0.107749365 0.082801 -0.108235076 0.10828936
-0.032759074 -0.055651035 0.15624093 0.1460336 0.1274984 -0.01304492 -0.053337988 -0.15625519
0.14461763 -0.14586557 0.14641435 -0.15255314 0.108039595 -0.15653987 0.10177014 -0.033546023
0.01797124 -0.1068223 0.08743418 0.14328134 0.11817347 0.07556787 -0.095563166 0.0073802993
-0.010720071 -0.15250939 -0.065320164 -0.12711117 0.025325641 0.06902062 0.08726984 -0.15634245
0.09083959 0.01859185 -0.056829378 0.13436365 -0.03532394 0.14999458 -0.07448328 -0.1399328
0.035291635 -0.07335323 0.06961132 -0.030920748 -0.084602416 0.04813431 0.070892274 -0.03777272
0.115548536 0.12634216 0.14619835 -0.020851426 0.03449417 -0.08512036 -0.1496155 0.09336078
-0.12220273 -0.09359392 -0.018609228 -0.017117547 0.039285984 0.06643616 0.058448285 -0.14876333
0.027705584 -0.115264565 0.10876655 0.10555201 -0.13673805 0.10871036 -0.15332489 -0.0941741
0.06079615 0.05391042 -0.096413925 -0.14152329 0.055697683 0.07212222 0.008227244 0.15468192
0.037292417 -0.063978896 0.066058464 0.025387276 0.03586358 -0.14423414 0.027530253 0.083230555
0.074079014 0.13751253 -0.09551275 0.13891754 -0.1377547 -0.04390079 0.039837323 0.0795052
-0.101141594 0.14852203 0.11361704 -0.03911084 0.1300212 -0.0040738895 0.07241526 0.06232038
-0.028247764 0.10452894 -0.11471592 0.13785408 -0.1308457 -0.11787681 0.14013985 0.10318903
-0.05092042 -0.07176481 -0.028444977 0.020491378 -0.14103591 0.15402825 -0.109043285 -0.079176426
0.14611536 0.14868163 -0.07571704 -0.09187945 -0.0958875 0.026057987 -0.01341686 0.014257717
-0.0041539585 -0.011169329 0.1300675 0.00242959 -0.023622043 -0.13721246 -0.09480038 -0.026432848
0.06270384 0.061760727 -0.117485575 0.022160519 0.0747665 0.15730081 -0.10476694 0.093866564
-0.07394779 0.08194765 -0.072624125 0.011012904 -0.059945583 0.06914727 0.086939365 0.031550556
-0.10642383 0.1488045 0.12038674 0.12491852 -0.1079577 -0.07518961 0.0069549987 0.15537232
00000000: a932 6f3c bdee cc3d 646b d83d ef9e 663c
00000010: 9f53 003e 4205 0d3e 6007 bd3d e9d4 13be
00000020: f330 b5bd beb7 e73d 98b6 30bb 7ea1 03be
00000030: e3c6 c13c d916 a93d 4b81 073e e897 4e3d
00000040: 38e9 a9bd fa6a c0bd 66c1 a0bd 9186 81bd
00000050: fc12 86bd 20ee c5bb 9e5c 1e3e 14a7 a9bd
00000060: e33b fd3d 082a 81bd 3572 0c3d f42d 023e
00000070: 9b8f 8cbd 9633 b6bd 74d4 853d bb81 a4bd
00000080: c3ca f3bd 659e a83c 67ab df3c 69ae d0bb
00000090: e34c d73d 976c fcbd 9876 843d c874 11be
000000a0: 0c88 1abe d291 19be ad33 06be f9a1 113e
000000b0: e021 61bd 3132 a63c 0aa8 b33d dcdf d93d
000000c0: 4558 18bd 6e32 33bd b15e 01bd 10d3 01bc
000000d0: abd1 0a3e fe7c 83bd c67c dbbc 1330 0ebe
000000e0: a990 ecbd 12b3 083d eeba 4b3d 6ca8 d33d
000000f0: 36db ffbd 021a d13d 4426 a6bd fec5 67bd
00000100: 275e a53d 2ecd ecbb 9747 c83c 1353 6f3c
00000110: 9031 f7bc 2078 bc3d bbd2 c2bc 1e5d 20be
00000120: 67ec 68bd 3ec3 193e e50f df3d c248 f93d
00000130: 6c0e a0bd e919 f03d d374 023e c784 d33d
00000140: cbdb bd3d 47a3 12bd 0b5b 0a3e 9df6 d43b
00000150: 3361 823d c067 fe3d 137e a23d 811b 03be
00000160: fe6f a9bd 9715 1cbb 2c16 013e 8bec ffbb
00000170: b3ab dcbd 9293 a93d 5aaa ddbd d0c6 dd3d
00000180: 612e 06bd 57f2 63bd 9ffd 1f3e d589 153e
00000190: f18e 023e 5cba 55bc ef78 5abd 5c01 20be
000001a0: a516 143e c95d 15be a5ed 153e e436 1cbe
000001b0: dd43 dd3d fd4b 20be dd6c d03d 8e67 09bd
000001c0: 6c38 933c a6c5 dabd b110 b33d 58b8 123e
000001d0: ef04 f23d 54c3 9a3d 9fb6 c3bd 70d6 f13b
000001e0: 3da3 2fbc 6c2b 1cbe 94c6 85bd 6e29 02be
000001f0: b877 cf3c af5a 8d3d 88ba b23d 3c18 20be
00000200: 1b0a ba3d ef4d 983c ecc5 68bd a096 093e
00000210: d6af 10bd 2e98 193e b18a 98bd 8b4a 0fbe
00000220: f68d 103d 383a 96bd 6190 8e3d 824d fdbc
00000230: 0844 adbd 7b28 453d f82f 913d 91b7 1abd
00000240: b6a4 ec3d d75f 013e 05b5 153e 9cd0 aabc
00000250: c249 0d3d 9553 aebd ce34 19be f033 bf3d
00000260: 6d45 fabd 2bae bfbd 6172 98bc 193a 8cbc
00000270: 57ea 203d ae0f 883d 7867 6f3d 6a55 18be
00000280: d2f6 e23c d40f ecbd ffc0 de3d a72b d83d
00000290: 0f05 0cbe 8aa3 de3d 3301 1dbe 5ade c0bd
000002a0: 6205 793d 2cd1 5c3d aa74 c5bd 7beb 10be
000002b0: 4123 643d d1b4 933d 90cb 063c f064 1e3e
000002c0: efbf 183d 5e07 83bd a949 873d faf8 cf3c
000002d0: b0e5 123d 1db2 13be 2087 e13c c874 aa3d
000002e0: bdb6 973d 16d0 0c3e 309c c3bd 6640 0e3e
000002f0: 910f 0dbe 51d1 33bd 762c 233d 9fd3 a23d
00000300: 5323 cfbd 2916 183e 0db0 e83d b032 20bd
00000310: 4724 053e 437e 85bb 744e 943d a843 7f3d
00000320: db67 e7bc 4513 d63d 2ef0 eabd 9f29 0d3e
00000330: 6afc 05be 6669 f1bd d280 0f3e c554 d33d
00000340: ee91 50bd 6ef9 92bd 7105 e9bc 89dd a73c
00000350: b86b 10be 95b9 1d3e 1652 dfbd 4027 a2bd
00000360: 449f 153e ff3f 183e 8911 9bbd 4b2b bcbd
00000370: aa60 c4bd 8f77 d53c 64d2 5bbc 3399 693c
00000380: ee1d 88bb 90ff 36bc 6a30 053e c239 1f3b
00000390: 0483 c1bc 6c81 0cbe b426 c2bd b389 d8bc
000003a0: df6a 803d d1f8 7c3d 479c f0bd fa89 b53c
000003b0: 2e1f 993d 7713 213e 0d90 d6bd 1d3d c03d
000003c0: f071 97bd 2bd4 a73d f5bb 94bd 786f 343c
000003d0: 8089 75bd 159d 8d3d 440d b23d 283b 013d
000003e0: bdf4 d9bd 3560 183e 538d f63d 48d5 ff3d
000003f0: ed18 ddbd 03fd 99bd c2e6 e33b ec19 1f3e

bias f4 [20]
-0.083301164 0.08002012 0.11834694 -0.013823369 0.15005866 -0.029149296 0.01802198 -0.14195804
-0.07757587 0.0064427867 0.09788758 -0.1392372 0.07433153 0.056357313 -0.107042424 0.06939007
0.029356726 -0.07450309 -0.12490278 -0.07379625
00000000: cd99 aabd 97e1 a33d e15f f23d 697b 62bc
00000010: faa8 193e 81ca eebc d5a2 933c 735d 11be
00000020: 19e0 9ebd 031e d33b 4979 c83d 3294 0ebe
00000030: 213b 983d edd6 663d 0f39 dbbd 621c 8e3d
00000040: 847d f03c 1395 98bd 07cd ffbd 7d22 97bd

weight f4 [1, 20]
-0.11081134 -0.13845061 0.16169623 -0.16557454 0.055687383 -0.0463649 -0.14187014 -0.18534641
0.02906659 0.06560275 0.06158124 0.17195576 0.21847628 -0.10909336 0.006221299 0.10447638
-0.0917962 0.20245555 -0.02754645 0.054090768
00000000: 0ef1 e2bd ffc5 0dbe b293 253e 5f8c 29be
00000010: 7418 643d 1fe9 3dbd 6846 11be 73cb 3dbe
00000020: 0f1d ee3c bc5a 863d 9c3c 7c3d 2c15 303e
00000030: 3fb8 5f3e 576c dfbd 0adc cb3b b6f7 d53d
00000040: a5ff bbbd 8250 4f3e 18a9 e1bc 488e 5d3d
